src/component/fixmatch-mnist/results/mnist@1000.5/model_best.pth.tar (torch, 973982 bytes, 99 tensors)

conv1.weight f4 [16, 1, 3, 3]
000000 6d ae 95 3d 74 14 14 be 00 a6 55 3d 2c ee 15 3f
       0.0730866 -0.14460927 0.052160263 0.58566546
000010 dc 9d 0a 3d 88 dc 21 bf 46 30 2b bf 14 56 d7 3d
       0.033841953 -0.6322713 -0.66870534 0.10514465
000020 95 73 0f 3f 8f a0 dd bb bd 08 6d 3d 72 a7 cc be
       0.5603574 -0.006763525 0.05786966 -0.399715
000030 be 4f 76 3e d4 48 3d 3e 83 3c 9e be 59 59 b2 3e
       0.24053857 0.18484813 -0.30905542 0.34833792
000040 11 c1 ac 3d 58 b9 5d be 73 40 91 bd d2 5d ca bc
       0.08435262 -0.21652734 -0.07092371 -0.02470294
000050 ae 4c a1 bb 01 0d bf be 1d b1 cc 3d ee 8d 77 3d
       -0.004922471 -0.3731461 0.09994719 0.06043809
000060 19 c7 3b be fc d6 84 3e 9b b2 40 3d 2e 19 ce 3c
       -0.18337668 0.2594527 0.04704533 0.025158491
000070 84 22 a5 3d 44 e9 cb bc 32 88 9d be e3 68 a3 be
       0.08063224 -0.024891503 -0.3076797 -0.3191596
000080 87 0f d7 bd 3f aa 47 3d 03 6a 7f 3e 11 f8 a1 3e
       -0.105010085 0.048746344 0.24942784 0.31634572
000090 b6 a7 b2 bc b3 9e dc bd 8b ad db be b1 f0 2f be
       -0.021808486 -0.10772457 -0.4290584 -0.1718166
0000a0 83 60 29 be 66 e7 33 3d b0 f4 18 3c ac be 68 3e
       -0.16540723 0.04392185 0.009335682 0.22728986
0000b0 15 f0 89 3e 97 a3 24 3e 2e 27 f4 3d 7a 78 f6 3d
       0.2694098 0.1607803 0.119215354 0.12034698
0000c0 a7 39 9b 3e 87 1a 45 3e 81 c3 c8 3d ba 6b a4 be
       0.30317423 0.192484 0.098029144 -0.3211344
0000d0 af bd e5 be 3d 79 60 be 9b a1 58 3e 68 b4 36 bd
       -0.4487128 -0.21921249 0.21155398 -0.044605643
0000e0 78 cb 0a be ec 2d ce 3d 58 60 9e be 97 8e 22 bb
       -0.1355418 0.10067353 -0.3093288 -0.0024804228
0000f0 1c 7e 84 be 42 fc 5e 3c 64 8c 29 3e 99 00 1e bc
       -0.25877464 0.013609948 0.16557461 -0.009643697
000100 9d e9 6b 3d 42 72 7b 3c 1e e0 48 be e9 fa 1f be
       0.057595838 0.015347065 -0.19616744 -0.15623058
000110 cf 5e ae bd f4 f1 f6 bc 6d e6 b6 bc a0 3c 75 bd
       -0.08514177 -0.03014467 -0.022326672 -0.05987227
000120 f5 5d 4e be 3f 20 dc 3c 6d 55 69 3e 0e c8 c6 bd
       -0.2015303 0.026870845 0.22786494 -0.09706126
000130 e4 49 9d be 2d 95 b3 3d 51 5f 5b 3d a8 88 c3 bd
       -0.30720437 0.087686874 0.053557698 -0.095475495
000140 d7 1a aa bc 90 24 4e 3e 1b de 8a be e0 80 e9 bd
       -0.020764751 0.20131135 -0.27122578 -0.11401534
000150 92 15 58 3e 94 8d 38 3e 81 4a 48 be d0 da 28 be
       0.21101978 0.18022758 -0.19559671 -0.1648972
000160 25 21 9f 3e 7c ba b1 3d df f2 82 3d 98 86 60 be
       0.31079975 0.08678147 0.0639398 -0.21926343
000170 cc 35 cb be 26 4a 1d 3d b4 44 94 be 3d 7d 4b be
       -0.3968948 0.03840079 -0.28958666 -0.19871993
000180 fa 62 da 3b f0 7a d2 3e 18 b5 16 3f 60 1f 27 be
       0.006664631 0.4110942 0.5887008 -0.16320562
000190 90 55 7e 3e 89 ef 06 3d 9e 2d 6c be 35 08 fe 3c
       0.24837327 0.032943282 -0.23064277 0.031009773
0001a0 d2 88 76 3e 26 90 0e be cf 95 06 be e8 e2 71 be
       0.2407563 -0.13922176 -0.13143085 -0.23621714
0001b0 75 3f 6d 3e 1a 69 12 bc 4e 23 84 be 3f d4 45 be
       0.23168738 -0.008936191 -0.25808185 -0.19319247
0001c0 54 77 a7 be 6c f9 ab bd 2b c4 3d 3e ac 5f 27 3e
       -0.32708228 -0.08397183 0.18531863 0.1634509
0001d0 ee 61 2e 3d b4 fd 5c 3e f8 b6 a3 bd 25 21 9a 3d
       0.04257386 0.21581155 -0.07993883 0.07525853
0001e0 5d d8 c5 3e bb 3b e9 be 90 ec 4e 3d 67 c8 b9 3d
       0.38641635 -0.45553383 0.050518572 0.09071427
0001f0 10 64 21 be 19 9a 08 be 0e fd 9f 3d 8e 36 41 3d
       -0.15760827 -0.13340034 0.07811938 0.047171168
000200 2c f2 2c 3e 02 28 3e be 92 7e fd bb e0 51 55 3e
       0.16889256 -0.1856995 -0.0077360356 0.20832014
000210 db e5 00 3e 39 63 79 3e 0f 4d a5 bd 05 b4 36 bc
       0.12587683 0.24354257 -0.080713384 -0.011151318
000220 ea c4 20 3e f2 87 4c be 49 a3 60 be 16 71 71 3e
       0.15700117 -0.19973734 -0.21937288 0.23578295
000230 b2 29 15 3d d4 be fd be 9e 77 ed bc c2 83 06 3f
       0.036416717 -0.49559653 -0.028987702 0.52544796

block1.layer.0.bn1.weight f4 [16]
000000 5d 0b 8a 3f 10 0b 9b 3f 98 8a 6f 3f 1a 95 7e 3f
       1.0784718 1.2112751 0.9357085 0.9944626
000010 41 69 86 3f 2b 01 87 3f 10 03 76 3f 44 ad 72 3f
       1.0500871 1.0547231 0.96098423 0.9479563
000020 a6 67 8b 3f c4 f9 59 3f e0 64 8e 3f 2b 33 74 3f
       1.0891006 0.8514674 1.1124535 0.95390576
000030 7e 01 6e 3f 22 94 78 3f ad ac 42 3f 29 5c 99 3f
       0.92971027 0.9710103 0.7604473 1.198125

block1.layer.0.bn1.bias f4 [16]
000000 52 65 8a bc 5f 52 4c bc cc 98 25 be ae 36 0c bd
       -0.016894016 -0.012470811 -0.16171569 -0.034231834
000010 5b d1 90 3e b9 6f 2f bc db a8 be bd fb 64 bc bd
       0.28284726 -0.010707789 -0.093095504 -0.09198948
000020 56 92 3c bd 27 15 1c be 61 29 78 3a ba 02 75 be
       -0.046037994 -0.15242444 0.0009466615 -0.23926821
000030 a3 3b e7 3d ac 35 21 39 b4 98 be be d5 10 ae bc
       0.11290672 0.00015374151 -0.37225878 -0.02124826

block1.layer.0.bn1.running_mean f4 [16]
000000 fb 47 59 ba 91 38 8d bb 6d f8 3c bc 7b 61 57 3b
       -0.0008288619 -0.0043097218 -0.011533839 0.00328645
000010 74 fa 55 bc 34 4e 8d bb 61 de eb bb ea ed 93 bc
       -0.013060201 -0.004312301 -0.0071981405 -0.018057782
000020 58 2e 30 bc f1 2b 06 3c ce cf ae 3b 5f 1e 97 bc
       -0.010753237 0.008189187 0.005334831 -0.0184471
000030 16 3c a7 bb 5f 66 d6 3b 48 54 de 3c 31 76 82 bb
       -0.0051035983 0.0065429653 0.027139798 -0.0039813747

block1.layer.0.bn1.running_var f4 [16]
000000 af c0 08 3e 24 ba a4 3e bc 55 e6 3d 64 c7 dc 3d
       0.13354753 0.32173264 0.11246821 0.10780218
000010 b3 61 6e 3e 60 aa 8a 3e 8f a9 b4 3d 78 57 25 3e
       0.23279457 0.2708311 0.08821403 0.16146648
000020 7d 9a 21 3e 86 c6 08 3e 4e 16 bc 3e 1e 2e 2e 3e
       0.15781589 0.1335698 0.36735767 0.1700978
000030 cc d2 09 3e 06 7e 01 3e 01 4e 81 3e bc a0 62 3e
       0.13459319 0.1264573 0.25254825 0.22131628

block1.layer.0.conv1.weight f4 [16, 16, 3, 3]
000000 e3 89 e6 3d 21 d1 04 3e 14 14 88 3d fd e7 1f 3d
       0.112567686 0.12970401 0.066444546 0.0390396
000010 62 d9 52 3e 99 60 55 3c 36 37 69 3e 41 30 a0 3e
       0.20590737 0.013023519 0.22774968 0.31286815
000020 6a af 36 3e f3 77 2e bd 77 6b d7 bc f1 6e b3 3d
       0.17840353 -0.04259486 -0.02629636 0.08761395
000030 3f a1 f2 3d 7b 36 80 bd ca 6e 51 3e 15 17 b1 bc
       0.118471615 -0.06260391 0.20452419 -0.021617452
000040 fa 99 f1 3d 46 5c f3 3c 81 dd e5 3d 65 07 a4 bd
       0.11796947 0.029707085 0.11223889 -0.08009223
000050 75 18 c5 39 8f e2 88 bd 9c 3d 92 bd 54 31 88 3d
       0.0003759299 -0.066838376 -0.07140657 0.066500336
000060 f9 cd 89 3d 0d cb 5b 3d fc a0 c2 bd ff 9b 02 bd
       0.06728739 0.05366044 -0.095033616 -0.03188705
000070 d5 ac 32 bd f2 c6 97 bd 4b 43 c0 bd 40 58 71 bd
       -0.043621857 -0.07410993 -0.09387835 -0.058922052
000080 b6 c9 98 bd 0f 78 df bd d1 71 42 bd e8 85 73 bd
       -0.07460348 -0.10911571 -0.047471825 -0.059453875
000090 3a 2e 0d 3e b6 1e 35 3e 25 e6 18 3e ce 2a 1d bd
       0.13787165 0.17687497 0.14931543 -0.0383709
0000a0 bb 47 bb bc 13 b4 b6 bc 8f 4e 95 3d 96 30 66 3c
       -0.022861352 -0.022302663 0.072903745 0.01404967
0000b0 24 b8 bb bd 62 27 e7 3c 3f b9 6a 3c c8 40 19 be
       -0.091659814 0.028217021 0.014326393 -0.14966118
0000c0 00 eb 0b 3e fa 28 83 bd 12 d1 92 bd 2d ee c0 3d
       0.13663864 -0.064043 -0.07168783 0.094204284
0000d0 ae f6 81 3e 07 9f 03 be c7 f1 f8 3d e3 72 40 3d
       0.25383514 -0.12853633 0.1215549 0.046984565
0000e0 39 3c 89 bd e1 29 18 3e 2b 4b 1a bd 66 49 40 bc
       -0.0670094 0.14859726 -0.037669342 -0.01173625
0000f0 23 33 bd bc 83 56 01 bc b3 37 d5 bd a4 62 13 3e
       -0.023095673 -0.007894161 -0.104110144 0.14393097
000100 7c 6a ce bb 59 85 f9 3d 81 fc 1c 3e ca b9 f2 3c
       -0.006299315 0.12183637 0.15330698 0.029629607
000110 e6 05 ad bc ac 98 53 3d 91 90 bb bd c6 56 20 3e
       -0.021120977 0.05165927 -0.09158433 0.15658101
000120 b2 28 25 bd 30 7e ad 3d 83 77 3a bb e8 03 d8 3d
       -0.040322013 0.08471334 -0.0028452582 0.1054762
000130 5c 08 32 3e 66 2a c4 3d c6 c0 34 3c 60 4d c8 3d
       0.17386001 0.09578399 0.011032289 0.09780383
000140 29 84 09 3e 07 13 89 bd 0d 76 20 3e a0 a7 58 bd
       0.13429321 -0.06693082 0.15670033 -0.052894235
000150 92 cd 20 3e 56 d9 7f 3d 69 37 f3 bc 4c 0d 02 3e
       0.15703419 0.062463127 -0.029689508 0.12700385
000160 dd 13 7f 3d be c6 ae 3c 10 dc 63 3c ae e3 e3 bc
       0.062274802 0.021335002 0.013907447 -0.027818527
000170 8b f3 de 3d 2c 30 ea 3d 84 00 58 3d 7e ee f2 3d
       0.10886296 0.11434969 0.052734867 0.11861895
000180 1d a1 0b 3e 27 b1 4c 3d c2 0a 9d 3d ff b0 51 3d
       0.13635679 0.049973633 0.076680675 0.051194187
000190 83 8e ca 3d d6 ba 20 3d af 9a 01 3d ea 83 c8 3d
       0.09890463 0.03924068 0.03164166 0.097907856
0001a0 4d eb 65 3e db f4 68 3d b2 10 9c bd c8 f1 46 3b
       0.22453041 0.056874137 -0.07620372 0.0030356515
0001b0 bc 9b db bc 76 42 31 3d 19 97 32 3e 4c d3 36 3d
       -0.026807658 0.043276273 0.17440452 0.044635102
0001c0 66 f6 9f 3e 32 b7 19 3e e2 c5 c8 3d c4 75 0c 3d
       0.31242675 0.1501129 0.09803368 0.034291998
0001d0 dd 0b dc bd 87 b8 8c be 4f 4c b2 be 95 51 99 bd
       -0.1074445 -0.27484533 -0.34823844 -0.07486264
0001e0 e1 6e 88 bd c7 87 ad bb b5 d0 c1 bd 3a 3f 99 bd
       -0.066617735 -0.005295727 -0.09463636 -0.07482763
0001f0 7d c9 79 3b e1 6c 48 3c 8d 79 97 bd e5 86 40 be
       0.003811448 0.01223299 -0.07396231 -0.18801458
000200 12 46 05 be 58 bf 9d 3a 3e 66 35 be f5 c6 26 bd
       -0.13015011 0.0012035174 -0.17714784 -0.040717084
000210 8f be 0a 3e 71 fa de bb 53 a9 1e be 0f 7a 26 be
       0.13549255 -0.0068047573 -0.1549428 -0.16257499
000220 59 91 87 3d e3 e2 ee bd 54 b8 ef bd fc ee e6 bd
       0.0661952 -0.11664369 -0.1170508 -0.112760514
000230 da fc ab 3d 87 07 25 3d d8 bf 08 3c d7 0a 58 3d
       0.08397837 0.04029038 0.00834652 0.052744713
000240 be a9 9f bd 76 8b be bd 62 b9 8a 3d 40 85 0e be
       -0.07796048 -0.09303944 0.0677364 -0.13918018
000250 56 e1 db 3c 77 1c de 3c 01 91 16 be 25 cd 90 bc
       0.026840847 0.027113182 -0.14703752 -0.017675946
000260 a5 61 9a bd ac 19 45 bd 50 76 12 3c 11 30 48 3e
       -0.075381555 -0.048120186 0.008939341 0.19549586
000270 f2 14 c9 3d 2b 4f 24 bd a1 51 1b bd f4 79 0b be
       0.09818448 -0.040114563 -0.037919644 -0.1362074
000280 69 83 dc 3d 9e 9b 78 bd 3c 27 b1 bd d6 9d 96 be
       0.10767252 -0.060695283 -0.086500615 -0.29417294
000290 77 ff 53 bd 22 b1 a0 3d 55 e9 b5 bd 2d 52 f5 bd
       -0.051757302 0.078462854 -0.08882395 -0.119785644
0002a0 85 9d 6e bd 51 df 0f be 71 21 04 3e ab 8c 5e bc
       -0.05825569 -0.14050032 0.12903382 -0.013583343
0002b0 97 b4 02 bd 76 79 9f bc 07 5a 81 bd b0 44 56 3d
       -0.031910505 -0.019467097 -0.063159995 0.0523116
0002c0 63 b8 46 bc ed 9b a7 bd b3 ce eb bd 7e 1c 51 be
       -0.012128922 -0.08184037 -0.11514034 -0.20421025
0002d0 2d 02 5f 3d 39 cf 13 be 25 21 1a 3c 49 8f 22 3e
       0.054445434 -0.14434518 0.009407316 0.15874971
0002e0 5e bb f2 bd 6f 49 7c 3c 16 02 72 be 6d 15 05 be
       -0.11852144 0.015398367 -0.23633608 -0.12996455
0002f0 b8 87 31 be bc f4 09 3e f3 c5 11 3d 82 4e 81 3d
       -0.17336929 0.13472265 0.03558917 0.06313802
000300 b2 e4 e8 bb 2b 76 6a bd b0 0d 88 3d 59 4d 0c 3c
       -0.0071073407 -0.0572416 0.06643236 0.008563363
000310 57 d8 01 be b4 d2 4d bd 61 93 d1 3c 14 34 65 3c
       -0.12680183 -0.05024977 0.025582971 0.013989467
000320 8d b5 47 be 88 23 55 be 95 2f ac bd c2 d6 cf bd
       -0.1950285 -0.20814335 -0.08407513 -0.10148384
000330 d1 91 9e 3d d7 34 15 3d df 6a 7f 3d ce 55 b2 3d
       0.07742656 0.036427345 0.06235778 0.08707772
000340 46 8c ba 3d a7 1c 87 3c a0 a3 97 3d e9 0d 2f be
       0.09108786 0.016493155 0.07404256 -0.1709515
000350 01 4d 38 bc 80 0a f5 3c 47 78 5f 3d 49 2f 4b be
       -0.011248828 0.029912233 0.054558065 -0.19842257
000360 1c 38 61 3e 4f 45 88 3d 57 1a 41 3b f6 50 89 3c
       0.2199406 0.066538446 0.0029465163 0.016762238
000370 6d 18 40 3d 89 e6 9c bd 78 55 a1 3e a8 09 a2 bd
       0.046898294 -0.076611586 0.3151052 -0.07911998
000380 eb 28 16 3e 33 ae ba bb f4 d6 98 3d 32 af 18 3d
       0.14664046 -0.0056970357 0.07462874 0.037276454
000390 92 6f 4d 3e db 22 94 3d b0 25 2c 3e b4 9f 1c 3e
       0.20062092 0.07233211 0.16811252 0.15295297
0003a0 f1 ba 0d 3e 2d 91 9c 3d 21 8d 33 3c cb 2c 50 bd
       0.13840844 0.076448776 0.010958941 -0.050823968
0003b0 58 9e ee 3c 81 65 da 3d b5 83 e9 bd 8a bd 07 bd
       0.029128239 0.106638916 -0.11402074 -0.033139743
0003c0 f5 5f d3 bd cf 5b c5 be af f3 9c be f9 07 29 bc
       -0.10321037 -0.38546607 -0.30654666 -0.010316842
0003d0 79 41 82 3d 06 cf 64 3d 7f 33 67 bd 04 69 0a 3e
       0.06360144 0.055861495 -0.056445595 0.13516623
0003e0 af 2b 1b 3d 16 d2 ad 3d 21 4d b6 3d 54 cb 50 3d
       0.037883457 0.08487336 0.0890143 0.05097516
0003f0 0d 3b 88 b9 58 0b 22 3a 60 8b ae 3d 8e eb a7 3d
       -0.00025983938 0.00061815 0.085226774 0.08199225

block1.layer.0.bn2.weight f4 [16]
000000 ec c4 27 3f fb 8a 2d 3f f4 cd 80 3f 6c d2 85 3f
       0.65534854 0.6779019 1.0062852 1.0454841
000010 22 6c 89 3f 02 c6 77 3f 5f 2b 75 3f da 0f 17 3f
       1.0736125 0.9678651 0.95769304 0.5900856
000020 8c 9b 89 3f 9f cd b2 3f 9c 56 50 3f 71 e3 fd 3e
       1.0750594 1.3969 0.81382155 0.49587587
000030 8e bb 47 3f 35 4a 5a 3f 50 c0 10 3f 32 5c 46 3f
       0.7802056 0.8526948 0.56543446 0.7748443

block1.layer.0.bn2.bias f4 [16]
000000 0f ba fd bd c2 9a a0 3d 85 0b b7 bd 58 4b a7 be
       -0.123890035 0.07842018 -0.08937744 -0.3267467
000010 2c c4 8e be 5d 54 5b 3e cc 3e 78 be f2 47 d2 3d
       -0.27884042 0.21418901 -0.24242705 0.10267629
000020 32 8d a8 be 06 16 77 be 76 6a 01 bd 20 d4 f1 3c
       -0.32920223 -0.24129495 -0.03159567 0.029520094
000030 d8 dc d0 3d 18 43 97 bd fa bb ca 3d 6f a9 ae bd
       0.101983726 -0.07385844 0.09899135 -0.08528411

block1.layer.0.bn2.running_mean f4 [16]
000000 d6 f7 6f 3f 1a 46 c4 be 83 e3 c8 be 38 8f 0b bf
       0.9373754 -0.38334733 -0.39236078 -0.5451541
000010 0b 70 2e bf 6b 8e 19 bf 8e b5 f4 be fe 94 d8 bd
       -0.68139714 -0.5998294 -0.47794765 -0.10575293
000020 e3 d1 09 bf 2e 74 35 bf eb 5f 83 3d 43 08 31 be
       -0.53835887 -0.708804 0.06414779 -0.17288308
000030 8c 69 0d bf 3a e2 ff be fc 4d 79 be 45 17 bd be
       -0.55239177 -0.49977285 -0.24346155 -0.36931816

block1.layer.0.bn2.running_var f4 [16]
000000 b3 12 97 3f 1b 8b c3 3f 87 21 6f 40 fa e4 f2 3f
       1.1802582 1.5276827 3.7364213 1.8976128
000010 3f 12 b2 3f 8b 22 ca 3f 9b db 98 3f 41 a0 9c 3f
       1.3911818 1.5791792 1.1942018 1.2236406
000020 01 e9 91 3f c2 45 2a 40 f9 12 ef 3f 72 e3 53 3f
       1.1399232 2.6605077 1.8677665 0.8276893
000030 17 e7 90 3f a9 50 a1 3f 43 05 ce 3f b6 11 9f 3f
       1.1320523 1.260274 1.6095356 1.242728

block1.layer.0.conv2.weight f4 [16, 16, 3, 3]
000000 db 86 70 bc 35 02 1d be 84 92 12 be a8 4c 58 bd
       -0.01468059 -0.15332873 -0.14313704 -0.05280748
000010 71 06 06 3d 09 c4 9a 3d 21 f5 78 3d 83 b8 76 3d
       0.032720987 0.07556922 0.06078065 0.060234558
000020 ff 73 59 3d 11 a2 dc bd bb de 25 3d 93 ad 31 3d
       0.053089138 -0.10773099 0.040495615 0.043378424
000030 7d 04 b8 3d 0a 0d 12 bd 86 48 13 3e 2e bb 8e bd
       0.08985231 -0.035656966 0.14383134 -0.069692954
000040 4d c4 99 3d a9 75 b5 bd 3f 6a d5 3d 3b 39 af 3d
       0.075081445 -0.088603325 0.104206555 0.08555838
000050 65 17 a0 3d 90 d7 0c be b1 5d 84 bd 3a 3a 8b 3d
       0.07816962 -0.13754106 -0.06463183 0.06798215
000060 3f b9 2b be 2d 1d 36 3c c6 e3 a2 3d 67 0a 25 be
       -0.16769885 0.0111153545 0.079536006 -0.1611725
000070 39 e5 ef bd 22 e2 3b 3d 86 f9 70 bd 1d db a0 bd
       -0.117136426 0.045869954 -0.058831714 -0.078542925
000080 a8 a5 57 3e 74 f4 19 3e 05 ee ff 3d f2 c5 1c 3d
       0.21059287 0.15034658 0.124965705 0.038274713
000090 38 b1 7d bd 92 8f 2b 3d 8e c3 49 3c a5 a0 38 3e
       -0.061936587 0.041884966 0.01231469 0.18030031
0000a0 26 fc 72 3e 3c 39 f8 3c a6 72 0b 3e 71 a8 b4 bd
       0.23729 0.030300729 0.13617954 -0.0882119
0000b0 29 c6 6e 3c 67 0a 91 bd a4 1d 74 bb 1a 4f 3b be
       0.014573612 -0.07082062 -0.0037249113 -0.18291894
0000c0 b0 8d f0 bd b1 98 2f 3d 47 a3 31 be e3 fe a5 bd
       -0.11745775 0.042870227 -0.17347442 -0.081052564
0000d0 e3 7e 61 bd fc 6b 2e be 12 12 f9 bd 09 e5 26 bd
       -0.05505265 -0.1703338 -0.1216165 -0.04074577
0000e0 2e 2e 25 3e 68 6b 7d bc 8e 5e 18 be 89 d8 9e bd
       0.16130897 -0.015467502 -0.1487982 -0.077561446
0000f0 c9 60 e0 3d fb 86 1a 3e 34 fc 8e 3d b5 70 d2 bd
       0.1095596 0.15090553 0.06981698 -0.102754034
000100 f2 49 ad bc 45 70 5e bd 4b a1 80 3c c0 ef 2d 3e
       -0.021153424 -0.054306287 0.01570191 0.16985989
000110 77 9c 14 3e 5c 3b 3b 3b dc 31 bb 3c d3 05 b8 bd
       0.14512812 0.0028569316 0.022850923 -0.08985486
000120 eb bb 5b 3d 10 52 84 3d 02 31 0e 3d 01 ee af 3e
       0.05364601 0.06460965 0.034714706 0.3436127
000130 d9 b2 05 3e bb 9b 37 3d a3 4f 68 3e 36 0e d8 3d
       0.13056506 0.04482625 0.22686629 0.105495855
000140 68 6f 29 bc 36 1d 80 3e fe 97 8a 3d 2d e9 56 3e
       -0.010341503 0.25022286 0.067672715 0.20987387
000150 3f 97 47 3e c9 7c 16 bd 70 3b a1 3e 3e 21 41 3e
       0.1949129 -0.0367401 0.3149066 0.18860337
000160 f0 50 a4 3d f7 8b 14 3e 46 39 21 3d 72 cc 87 3d
       0.0802325 0.14506517 0.03936126 0.06630792
000170 6c d2 8a 3c 6d 39 0b 3e db 95 c4 bd 14 d9 ed 3d
       0.01694604 0.13596125 -0.09598895 0.1161367
000180 bc 0d 90 bd fb a4 88 3d 99 d6 51 3e 4c 43 c6 3d
       -0.070338696 0.066720925 0.20492019 0.096808046
000190 10 72 6d 3d 7b 79 20 be 93 e4 60 bd 08 a1 8b bd
       0.057970107 -0.15671341 -0.054905485 -0.06817824
0001a0 87 6c 58 3e a3 c2 c6 bd 54 fe b0 bd 90 00 8e bd
       0.2113515 -0.09705093 -0.08642259 -0.06933701
0001b0 70 58 ba 3d 63 78 b6 bd fd da 26 be a7 f5 69 bc
       0.09098899 -0.08909681 -0.16294475 -0.0142797595
0001c0 ef ac d7 3d ff 22 15 be ac 7d 3c bc 5a cc c0 bd
       0.10531031 -0.14564131 -0.011504572 -0.09413977
0001d0 fd 0a 53 bd a6 34 a2 bd 72 ca 74 be e4 d2 3b be
       -0.05152415 -0.07920198 -0.23905352 -0.18342167
0001e0 7d 85 27 3d c0 ed 1e bd 0d 23 3a be 22 b4 dc 3d
       0.04089879 -0.038800955 -0.18177433 0.10776545
0001f0 15 74 77 bd ce 3d 50 be 7a e1 50 be f0 8a 3b be
       -0.06041344 -0.20336077 -0.20398512 -0.18314719
000200 86 62 ed 3d b3 aa 84 bd a1 5d 08 be 69 b6 11 be
       0.115910575 -0.06477871 -0.13316967 -0.1422974
000210 4e 97 13 bd 67 89 bf 3c d0 64 82 be dd 63 10 3e
       -0.036032967 0.023380948 -0.2546754 0.14100595
000220 bd 20 fd 3d 0e 7f 65 3e 3e f8 91 3d a2 fe f4 3d
       0.1235976 0.22411749 0.071274266 0.1196263
000230 d8 28 ef 3d 09 04 14 3d ed 3b f0 3c 9d b9 7d 3d
       0.11677712 0.03613666 0.02932545 0.061944593
000240 30 1b 1d bd 78 a0 f9 bd 75 fb d2 bd 3e bd da 3d
       -0.038356006 -0.1218881 -0.10301868 0.10680626
000250 16 8e c3 bc e0 97 d5 bd ca 80 fc 3d a3 7e 4e bd
       -0.023871463 -0.104293585 0.12329252 -0.05041374
000260 e1 23 26 be 6d 5f 59 3d 3c da 9a 3d 1e ae 11 3e
       -0.16224624 0.05306952 0.07561156 0.14226577
000270 e8 f2 22 3e b7 51 11 3c ed e5 21 3c 8b 6d b9 bd
       0.15912974 0.00886958 0.009881479 -0.09054097
000280 d3 bf 7a bd fa 07 bf 3d dd 12 64 3d 51 53 4d 39
       -0.061218094 0.09327693 0.055682052 0.00019581361
000290 8e e2 2b 3d 4f d6 7c bd 1c 39 11 3c 58 0b bc 3d
       0.041964106 -0.061727818 0.008863714 0.09181851
0002a0 0e 75 b3 bc 04 ee 13 bd de 3c 37 3d 94 1e f2 bd
       -0.021906402 -0.03611566 0.04473578 -0.118222386
0002b0 52 48 53 bd 03 0d cd 3d b2 76 83 3d 47 37 d8 bc
       -0.051582642 0.100122474 0.06419124 -0.026393546
0002c0 ec f9 e4 bc 74 fd 95 bd 43 e4 29 3c 33 69 40 be
       -0.027951203 -0.07323733 0.010369363 -0.1879013
0002d0 8c 9a 6a be 85 ba 19 bd ec 87 73 bd 70 cc 88 3c
       -0.22910517 -0.037531395 -0.059455797 0.016699046
0002e0 0f 97 ac bc 73 31 4f be b1 fd 7a 3d 3c a5 48 be
       -0.021068124 -0.20233707 0.061277095 -0.19594282
0002f0 38 cf 0a be 94 c3 54 bc 52 12 a2 3c e2 a3 89 bd
       -0.1355561 -0.012986083 0.019784126 -0.06720711
000300 9f ef 27 3c 30 6c 9c 3d 19 14 4e 3d 75 64 a5 3d
       0.010250001 0.07637823 0.050312135 0.08075801
000310 b5 29 61 3e 6a 5f 90 3e 36 b8 68 3c f6 39 48 3e
       0.21988566 0.28197795 0.014204076 0.1955336
000320 46 da 14 3e ae 34 a8 bd 27 f3 58 bc 32 69 bf bd
       0.1453639 -0.08213173 -0.013241566 -0.09346236
000330 5f eb 0e 3e 27 71 73 3c 29 2d f8 3c 2c c5 36 3e
       0.13956974 0.014858521 0.030294972 0.17848653
000340 7e 5e df 3d 7a 88 02 3e e9 8d 89 3c 45 d1 73 3e
       0.10906695 0.12747374 0.0167913 0.23810299
000350 77 8d 38 3e e0 6a 05 3d e6 d4 4f 3c 3e bc af 3d
       0.18022715 0.032572627 0.012685036 0.08580826
000360 d1 92 15 3e 15 ef c2 bd 2d 39 30 3c 79 2c e5 3b
       0.14606787 -0.095182575 0.010755819 0.006993827
000370 fe b8 cd bd bc 2e e0 3c d7 8e 83 bd 85 a3 02 bd
       -0.1004505 0.027366035 -0.06423729 -0.031894226
000380 a7 2d 1b 3d 06 a6 1b be 5f b5 28 bd 4f ac 6b be
       0.037885334 -0.15200052 -0.041188594 -0.2301495
000390 53 b0 fd bd 53 d8 32 bd a4 00 a7 bd 20 71 a0 bb
       -0.12387147 -0.043663334 -0.08154419 -0.004896298
0003a0 ad de e4 3d 94 c2 d3 3c b3 f9 58 3e 0e a5 a4 3d
       0.111752845 0.025849618 0.21189003 0.08039294
0003b0 ba 8c 9d bd e3 33 07 3d dc b1 8a bd de 36 28 bd
       -0.07692857 0.033008467 -0.06772205 -0.04106795
0003c0 0f 13 36 be f5 6a 91 bd 5d 73 be bb f8 40 92 bc
       -0.17780708 -0.071004786 -0.005812092 -0.017853245
0003d0 63 a6 8d 3c 9b 34 3d 3c 8b 75 9d bd 4d 01 93 bd
       0.017291253 0.011548187 -0.07688435 -0.071779825
0003e0 49 f5 13 3e ab 5e 2e be 1a 4e 8f bd e0 ee 79 bd
       0.14449038 -0.170283 -0.069973186 -0.061018825
0003f0 66 c2 61 3c 09 b0 fb 3c cb 2a 32 bd 4f 8a 17 be
       0.013779258 0.030723589 -0.04349784 -0.14798854

block2.layer.0.bn1.weight f4 [16]
000000 00 00 80 3f 00 00 80 3f 00 00 80 3f 00 00 80 3f
       1.0 1.0 1.0 1.0
000010 00 00 80 3f 00 00 80 3f 00 00 80 3f 00 00 80 3f
       1.0 1.0 1.0 1.0
000020 00 00 80 3f 00 00 80 3f 00 00 80 3f 00 00 80 3f
       1.0 1.0 1.0 1.0
000030 00 00 80 3f 00 00 80 3f 00 00 80 3f 00 00 80 3f
       1.0 1.0 1.0 1.0

block2.layer.0.bn1.bias f4 [16]
000000 00 00 00 00 00 00 00 00 00 00 00 00 00 00 00 00
       0.0 0.0 0.0 0.0
000010 00 00 00 00 00 00 00 00 00 00 00 00 00 00 00 00
       0.0 0.0 0.0 0.0
000020 00 00 00 00 00 00 00 00 00 00 00 00 00 00 00 00
       0.0 0.0 0.0 0.0
000030 00 00 00 00 00 00 00 00 00 00 00 00 00 00 00 00
       0.0 0.0 0.0 0.0

block2.layer.0.bn1.running_mean f4 [16]
000000 4e 16 31 bd 05 df b4 3e d6 7a ba 3d f1 96 98 be
       -0.043234162 0.353264 0.0910546 -0.2980266
000010 8b 54 98 be 28 27 35 3e 4b 93 8f 3d 28 07 98 3e
       -0.29752 0.17690718 0.07010516 0.2969296
000020 87 8d c3 3d 23 7a 82 3d 86 65 a1 3e c2 1a 88 be
       0.095484786 0.06370952 0.3152277 -0.26582915
000030 ef 8a 8d be e7 70 3b bd a8 43 ea 3e b7 f4 4c 3e
       -0.2764506 -0.04576197 0.45754743 0.20015226

block2.layer.0.bn1.running_var f4 [16]
000000 6f dd 87 3e d9 66 88 3e 73 33 d6 3d 17 17 46 3e
       0.26536128 0.26640967 0.10459032 0.19344746
000010 c5 97 24 3e 5d a4 74 3e 60 22 c1 3e ef 9e 84 3e
       0.1607352 0.23890825 0.3772154 0.25902507
000020 ec b5 87 3e 85 ea 3d 3e d3 6a 88 3e 5d 86 5d 3e
       0.26505983 0.18546493 0.26644 0.21633287
000030 d3 b5 9a 3e 86 4c c9 3e 1f 9f 97 3e 55 5a c2 3e
       0.30216846 0.39316195 0.29613587 0.37959543

block2.layer.0.conv1.weight f4 [32, 16, 3, 3]
000000 36 b8 a2 bd a8 1b 41 bd 74 28 cc bd 39 d1 9d bd
       -0.07945292 -0.047145516 -0.09968653 -0.07705922
000010 5e 90 3f be 65 c3 76 bd 15 bd 7c bd 3a 24 bc bd
       -0.18707415 -0.060244936 -0.06170376 -0.09186597
000020 c4 03 87 bd 27 d3 29 3d 2f 5b f1 3c 1f 9d e2 3b
       -0.06592515 0.041461136 0.029462425 0.006915703
000030 6b 3e 32 3d a3 1b 7e 3c ad 1b 64 3d 93 03 c1 3d
       0.043516558 0.015509519 0.055690456 0.0942451
000040 d7 d5 a7 bc d4 cb 40 3d 4c 25 1b 3d d9 37 69 3c
       -0.020487709 0.047069386 0.037877366 0.0142345065
000050 82 a9 68 3d e0 a8 1d bd ed 16 fc ba 21 c5 44 be
       0.05680228 -0.03849113 -0.0019232907 -0.19215824
000060 49 ac 5d 3d ee fa 52 3c 90 cd a2 bc ac ec 3a 3d
       0.054119382 0.012877209 -0.01987341 0.045635864
000070 46 99 d1 3d d9 cf 88 bc a7 c9 c9 bc 44 19 2b 3b
       0.10234313 -0.016700672 -0.024632288 0.0026107589
000080 a8 f4 84 3b dd 44 29 3d 62 4f 91 3d 5a 75 b7 bc
       0.0040574856 0.04132544 0.07095219 -0.022394825
000090 b6 ca 8b 3d aa b1 7f 3d c0 27 11 3e bc 37 c1 3c
       0.068257734 0.062425293 0.1417532 0.023586147
0000a0 7c d4 86 3c 4b 87 19 3e 14 bd 10 3d 41 a6 b3 3d
       0.016458742 0.14993016 0.03533657 0.08771945
0000b0 a6 23 4b bd ec e9 eb bb ea 1a 08 3d b0 e3 4c bd
       -0.049594544 -0.0071995165 0.033228792 -0.050021827
0000c0 4d d5 76 3d c9 7c 89 bd e7 46 3c 3d 8f ae df 3d
       0.060262013 -0.06713254 0.045966055 0.10921966
0000d0 a4 0a 49 3d c5 98 04 3d f1 e5 dd 3d e2 91 82 3d
       0.049082413 0.032372255 0.108348735 0.06375481
0000e0 bf 50 be 3d e8 a2 96 3d a1 6d a5 3c 8a 69 14 bd
       0.09292745 0.07355291 0.020193877 -0.036233462
0000f0 36 af 44 3c 58 31 30 3d b3 47 89 bd 47 f9 77 3c
       0.012004664 0.043015808 -0.06703129 0.015135116
000100 69 f5 d4 bc ea ec a1 3d b6 37 15 bd b3 f8 30 3d
       -0.025995927 0.07906516 -0.036430083 0.043205928
000110 4f 8f 96 bd b8 8c 07 bd a5 9e 7e 3c c6 5b 6d bd
       -0.07351553 -0.033093184 0.0155407535 -0.05794885
000120 fb 87 d6 3d 2f cf 13 bd 35 c8 10 bd e5 5a c2 3d
       0.10475155 -0.036086258 -0.035347182 0.09489993
000130 d7 9f fd bd ea 43 d3 bd f3 ae 0d 3c 1a a7 f8 bd
       -0.12384003 -0.10315688 0.008647668 -0.12141247
000140 a4 e4 6e bd 3b db 39 3d 52 78 ac 3d f1 e8 b0 3d
       -0.058323517 0.04537509 0.08421387 0.0863818
000150 d5 f8 32 3d ea 21 23 3c ce b3 fc bb c6 98 3b bd
       0.043694336 0.009956816 -0.007711864 -0.045799993
000160 19 1b 9d bc ad 0c b8 bd 67 38 34 bd df cd 10 be
       -0.01917796 -0.08986793 -0.043999102 -0.14141034
000170 b9 3e 1f be d8 27 32 be b5 07 f1 bb c9 e7 44 bd
       -0.1555127 -0.17398012 -0.007355655 -0.04807261
000180 9e 71 f4 bd f8 68 13 bd f8 fb 89 bd 78 8a 30 3d
       -0.11935733 -0.035988778 -0.06737512 0.043100804
000190 18 c0 09 3d 3e 8a 3e bd a7 6f 84 3d 75 0d 89 3d
       0.03363046 -0.046518557 0.064666085 0.0669202
0001a0 c6 14 bf 3d 14 cf 40 3e b3 fd 28 3e 7c d0 8d 3c
       0.09330134 0.18828994 0.16503029 0.017311327
0001b0 f0 b4 f2 bc fc a3 22 3d d2 91 3c bd ca d0 01 be
       -0.029627293 0.03970717 -0.046037503 -0.12677303
0001c0 83 cb 8c 3b 75 b8 8c bc 48 60 50 bd 4d 71 e6 bd
       0.0042967214 -0.0171778 -0.05087307 -0.11252079
0001d0 d5 09 5a bd 11 7e 8c 3d 28 5b 38 3d cd 73 5a 3c
       -0.053232033 0.06859983 0.04500881 0.013333273
0001e0 ce 51 e0 3d 06 1a c4 bc ab fc 06 bc 87 56 97 3c
       0.10953103 -0.02393819 -0.008238952 0.018473877
0001f0 0d e5 f6 3c 78 e7 3f bd a5 b9 55 bc 97 40 3a bd
       0.030138517 -0.046851605 -0.013044749 -0.045471754
000200 06 4c a8 bc 0c d7 ab bb 0f 16 85 bd 16 c4 8b 3c
       -0.020544063 -0.0052441414 -0.06498348 0.017061274
000210 a7 4a 8f bd b1 a2 f9 3c 23 bd ff bc 3d be d1 bd
       -0.06996661 0.030473085 -0.031218117 -0.10241363
000220 bc f7 fc bd 72 e7 c5 bd a6 53 89 bc 78 2e 39 3d
       -0.12351939 -0.09663285 -0.01676352 0.04521033
000230 06 2b 34 bd 13 a5 33 bc 5a a7 bf bd 00 d9 35 bd
       -0.043986343 -0.01096465 -0.09358092 -0.0443964
000240 2b a0 26 bd 64 bd f3 3c d2 2c 48 bc 45 9c b1 3a
       -0.04068009 0.029753394 -0.012217717 0.00135506
000250 c9 b6 83 bd 89 a2 3b 3d 84 6c 8c bd 54 09 22 bd
       -0.06431348 0.045809302 -0.06856635 -0.039559677
000260 fb 55 3a bd d2 3d cb 3d 07 2c 9b 3d d5 a9 97 3d
       -0.045492154 0.09923901 0.07576757 0.0740544
000270 b4 03 33 bc 54 c6 e8 bb 00 40 91 3d 37 c6 3e 3d
       -0.010926176 -0.0071037207 0.07092285 0.04657575
000280 12 cb b5 3d e1 5c f7 3d 8a 51 dd bd d9 94 c7 bd
       0.08876623 0.12078262 -0.10806568 -0.09745187
000290 89 a8 12 bc 55 aa d0 bd b3 2c a6 3d 20 bf 6e bd
       -0.008951315 -0.10188738 0.081139944 -0.05828774
0002a0 76 74 86 bd 7f 92 cf ba f3 64 aa 37 21 eb 97 3d
       -0.06565182 -0.0015836506 2.0312587e-05 0.07417894
0002b0 b9 66 96 3b 1a fe 02 3e 7a 31 3f bb 8f 03 cc 3d
       0.004589882 0.12792245 -0.0029173777 0.09961616
0002c0 b4 84 5a 3c 62 2b 94 bb 56 3b d9 3d 6d ac a0 bb
       0.013337303 -0.004521773 0.106070206 -0.0049033673
0002d0 f6 81 29 bd ca fc 6e bd 4c c3 ca 3c 64 07 a9 3d
       -0.041383706 -0.058346547 0.024751328 0.08253363
0002e0 89 34 26 3d 7e 53 14 bc bf 79 8d bc 27 9d c8 3d
       0.040577445 -0.009053109 -0.017269967 0.097955994
0002f0 5f 50 32 bd 8f 5d a4 3c be ef 8d bc c3 7e 70 bd
       -0.04353368 0.020064143 -0.017326232 -0.05871464
000300 95 ec 1e bd 01 9a f1 bc c4 c6 6a bc 7f cc fb 3c
       -0.03879984 -0.02949238 -0.014329616 0.03073716
000310 e7 e2 01 3d c4 4f 15 bd 18 3a c4 bd 74 e7 98 bd
       0.03171053 -0.036453024 -0.09581393 -0.07466021
000320 4b 29 bd bd 9c 5c 2f be f5 e5 c0 bc 2c 19 ad bd
       -0.09236392 -0.17125171 -0.023547152 -0.08452067
000330 ca 40 95 bd a1 7c 0c be a0 7b 66 bd 26 82 59 bd
       -0.07287748 -0.13719417 -0.05627024 -0.053102635
000340 59 0a be 3d bf 57 7c 3d 78 a4 ef bd f9 32 06 3c
       0.092793174 0.06160712 -0.11701292 0.008190864
000350 be f3 a7 bd eb f5 8f bd 4b 94 81 3d 82 31 88 3c
       -0.08200787 -0.07029327 0.06327113 0.01662517
000360 e9 1e c4 3d 22 99 06 bd 57 04 55 3d 1b 99 86 3d
       0.09576208 -0.032860883 0.052006092 0.06572171
000370 d8 44 a4 bd 16 5b 45 3d 92 5f 15 3e ff 8f aa bc
       -0.080209434 0.04818257 0.14587238 -0.020820616
000380 f4 45 0e 3c 33 5c 05 3e 45 46 d5 3b 72 85 ff 3b
       0.00868367 0.13023452 0.006508621 0.0077978903
000390 d9 c0 8b 3d c2 d3 47 3e 3c 72 cc 3d 81 c8 76 3d
       0.06823892 0.19514373 0.09982726 0.06024981
0003a0 e4 9c be 3d 53 7f 5f bb 93 00 4e bd 07 08 97 bd
       0.09307268 -0.003410299 -0.050293516 -0.07374578
0003b0 1a 95 3c 3d aa 23 b0 bd b1 33 b8 bb ec 6f 85 bb
       0.04604063 -0.086005524 -0.0056213965 -0.00407218
0003c0 17 59 2c bd 0b 9c 7b bd 99 fe b7 3d 29 8a ac 3c
       -0.04207715 -0.06142811 0.089841075 0.021061974
0003d0 cf 19 04 bd ee 40 18 be f6 eb 90 bd 41 5d f1 bd
       -0.032251175 -0.14868519 -0.07076256 -0.11785365
0003e0 b2 cc c7 bd e6 76 0b 3d 51 9a 86 bd 23 b1 94 bd
       -0.097558394 0.034048937 -0.06572402 -0.07260349
0003f0 14 92 f4 3d 85 24 bb bd 31 f7 9e 3d 32 6b cf bc
       0.11941925 -0.09137825 0.07761992 -0.02531967

block2.layer.0.bn2.weight f4 [32]
000000 6a a9 49 3f 19 87 2f 3f 62 93 50 3f 4e 91 6d 3f
       0.7877413 0.6856552 0.8147489 0.9279984
000010 00 87 46 3f d3 85 8d 3f d4 c1 46 3f 92 73 52 3f
       0.77549744 1.1056465 0.7763951 0.82207596
000020 66 48 43 3f 30 90 89 3f e2 4b 59 3f 41 eb 80 3f
       0.76282346 1.0747128 0.84881413 1.0071794
000030 58 c7 8f 3f 08 a4 8a 3f eb 51 3b 3f b1 f0 73 3f
       1.123271 1.0831308 0.7317187 0.9528914
000040 74 68 83 3f 9a 6d 83 3f 4d ee 3c 3f e7 8d 75 3f
       1.0266252 1.0267823 0.7380112 0.9591965
000050 75 33 7f 3f 7d d2 42 3f 8f d0 6c 3f 87 e1 79 3f
       0.9968789 0.7610243 0.92505735 0.9760975
000060 56 18 8a 3f 68 88 69 3f f5 ba 63 3f c5 b8 80 3f
       1.0788677 0.91223764 0.8895715 1.0056387
000070 de 4a 6c 3f 8b 14 24 3f b7 fc 80 3f ae 91 82 3f
       0.9230174 0.64093846 1.0077122 1.0200708

block2.layer.0.bn2.bias f4 [32]
000000 65 1e 66 bd 2e 64 cd 3b 59 d5 98 be 5f ff d0 3d
       -0.05618133 0.006268046 -0.2985027 0.10204958
000010 10 c9 6f be 74 5b b6 3d 6b cb 17 be 7b ed 87 be
       -0.23416543 0.08904162 -0.14823692 -0.2654837
000020 33 4d 17 bd 2f 19 a6 be e7 eb 7d be 42 46 34 be
       -0.036938857 -0.3244109 -0.24797021 -0.17604926
000030 79 7d 78 be 52 aa 18 3d c2 b2 32 bc af 5a 09 be
       -0.24266614 0.037271805 -0.010906877 -0.134135
000040 80 f1 b5 bb 18 f0 0c bf 63 60 4a be 1e 00 28 be
       -0.0055524707 -0.55053854 -0.19763331 -0.16406295
000050 20 4e 91 be a0 97 21 3c 12 9e 9a 3c d2 5e 16 be
       -0.28379917 0.00986281 0.018874202 -0.14684609
000060 cb ee c0 bc 5a 0d 26 be 58 01 1f be 93 8e 05 be
       -0.023551365 -0.1621603 -0.15527856 -0.13042669
000070 c0 9e 0f be d7 16 fd bd fa f8 7b be 4f a2 5d be
       -0.14025402 -0.12357872 -0.24606696 -0.21643947

block2.layer.0.bn2.running_mean f4 [32]
000000 ac 36 fe be 7e 3b 70 bd f5 cd b1 be ec ef 04 3d
       -0.49651086 -0.058650486 -0.34727445 0.03245537
000010 b6 da b8 3e a7 59 7d be 8b d8 29 3e 92 e1 f8 bd
       0.36104363 -0.24741231 0.16586511 -0.12152399
000020 b6 dc d5 3e 61 62 13 bf 84 da 08 3f 35 fb 15 be
       0.41769952 -0.5757199 0.5345843 -0.14646609
000030 a7 1e 7c bd 08 a9 2d bf f0 51 7e 3d dd 7f d0 be
       -0.06155267 -0.67836046 0.06208986 -0.40722552
000040 87 c1 e5 be bf 88 0c bf b7 83 17 be d4 30 ce bd
       -0.44874212 -0.5489616 -0.14796339 -0.10067907
000050 e2 0e 20 be 12 95 45 be 8d 05 ef bd 81 1e 2b 3e
       -0.15630677 -0.19295147 -0.116709806 0.16710855
000060 81 8c 33 bf f3 e0 57 be a8 a8 61 bf 9a 31 1b 3d
       -0.70136267 -0.21081905 -0.88147974 0.0378891
000070 ad 63 e3 bc e6 e7 52 3e 6f be da 3d a8 8d 76 be
       -0.02775749 0.20596275 0.106808536 -0.24077475

block2.layer.0.bn2.running_var f4 [32]
000000 f8 d1 f0 3e 2e 58 1f 3f 74 b4 3c 3f 85 46 38 3f
       0.47035193 0.62243927 0.7371285 0.71982604
000010 f8 70 e1 3e 3e 53 6a 3f bd 0e 73 3f aa e2 d4 3e
       0.440315 0.9153327 0.94944364 0.4157918
000020 23 30 3c 3f 79 83 63 3f bf ba e2 3e 69 46 11 3f
       0.7351095 0.88872486 0.442831 0.5674806
000030 8d 9c 86 3f bd a4 63 3f 28 30 71 3f 3e 9e 2b 3f
       1.0516526 0.88923246 0.94214106 0.67038333
000040 95 d9 31 3f 51 0b 8c 3f 31 eb 15 3f a5 05 07 3f
       0.6947263 1.0940953 0.58562 0.5274299
000050 cd ae 44 3f 4e cc 0c 3f 92 c2 25 3f c5 99 2e 3f
       0.76829225 0.54999244 0.64750016 0.68203384
000060 9f c0 c0 3f ab bd 1c 3f 39 fb 32 3f ed a5 54 3f
       1.5058783 0.6122691 0.69914585 0.8306568
000070 f4 38 87 3f 13 e7 f0 3e 05 f5 3d 3f f3 62 86 3f
       1.0564256 0.47051296 0.74201995 1.0498947

block2.layer.0.conv2.weight f4 [32, 32, 3, 3]
000000 53 ce 24 bd 7f e2 53 3c 0f 3d 91 bd cb fa d1 3b
       -0.04023583 0.012932419 -0.07091724 0.0064080707
000010 b8 78 01 bd 5a 22 4f bc c8 f2 ab 3d 07 77 27 3d
       -0.031609267 -0.012642467 0.08395916 0.040884998
000020 dd 59 1e 3d b1 c1 cc 3a 61 0f 82 bd 3f 16 03 3d
       0.03865992 0.0015621689 -0.063505895 0.032003637
000030 e6 69 06 3e c8 09 af 3c 1e 28 85 3c c9 3d 9b 3d
       0.13126335 0.021366969 0.01625448 0.07580144
000040 17 e4 01 3e 6c 52 3c bd 90 6f bb bd 75 1b ce ba
       0.12684666 -0.04597704 -0.09152138 -0.0015724736
000050 49 24 98 bd 33 7e a1 3d 5f 00 a5 bd ed 85 88 bd
       -0.07428796 0.07885399 -0.080567114 -0.06666169
000060 ad 47 d7 3d f0 39 6c 3d fb 65 f6 bb ca 9a ce 3d
       0.10511718 0.05767244 -0.0075194812 0.100881174
000070 0e aa 16 3e f8 02 90 3d c6 af c2 39 af 8b 63 3d
       0.14713308 0.07031816 0.00037133525 0.055553135
000080 f8 0b 0b 3d fd 2c 53 bd 66 4c e6 bd f9 27 ce 3c
       0.03394696 -0.051556576 -0.112450406 0.025165545
000090 6b fe d2 bc 1c 7b f2 3b 0d 5f 3e be 24 02 8a bd
       -0.025756082 0.0073999297 -0.18590946 -0.067386895
0000a0 16 59 14 bd 61 9a 7b b9 f2 c0 7c 3d 75 8e 9c 3d
       -0.03621777 -0.00023994736 0.061707444 0.07644359
0000b0 f3 28 25 bd cb d8 1e bc 00 9e 14 bc a5 64 6d bd
       -0.040322255 -0.009695242 -0.009070873 -0.05795731
0000c0 e3 a5 33 3d 5b 1b 7f bd c1 19 1d bd 5b 61 23 bd
       0.043859374 -0.062281948 -0.03835464 -0.039887767
0000d0 68 16 1e bd 79 6d 07 bd e1 b5 1e 3d ee cc 6e bd
       -0.038595587 -0.033063386 0.038747672 -0.058300905
0000e0 d9 42 04 bd dc 3e 89 bd 94 ec f5 3d bf 93 40 3d
       -0.032290313 -0.067014426 0.12008014 0.0470159
0000f0 a4 57 81 bd b3 d3 a1 bd bf 6a a5 bb c5 6f 1a bd
       -0.06315544 -0.079017065 -0.0050481255 -0.037704248
000100 9f 73 35 3d fb 4f d8 3d dc 58 dc 3c 73 61 f7 bb
       0.044299718 0.1056213 0.02689784 -0.0075494586
000110 8f a4 cc 3c 3f 34 d9 bc 3e 89 45 3d a8 f0 3c 3d
       0.024980811 -0.02651417 0.048226587 0.046127945
000120 d0 8e 09 be a8 cf b6 bd fe 71 da bc 5b f4 87 3d
       -0.13433385 -0.08926326 -0.026665684 0.06638404
000130 6d 51 4a 3d 0f 0e 3b 3d 6f 70 87 bc f2 e2 40 bd
       0.04939406 0.045667704 -0.016533105 -0.047091432
000140 bc 1f 80 bd 0d c3 07 3e 44 41 99 3d 15 1a 0f 3e
       -0.06256053 0.13258 0.074831516 0.13974793
000150 05 77 72 bd 4c a1 06 3d 62 11 da 3b 53 3c b3 3c
       -0.059195537 0.03286867 0.006654904 0.02187935
000160 84 36 42 bb 1c 45 11 3d be 53 bb 3d d0 be 8c 3c
       -0.0029634545 0.0354663 0.09146832 0.01718083
000170 c3 47 eb 3c cd e6 a0 3d 43 1e 2b 3d 5b f2 98 3d
       0.028720742 0.07856522 0.041776907 0.07468101
000180 3d 56 d4 3c ec 9a a6 bd c5 fe 93 3d 1b c2 b8 bd
       0.025920028 -0.08135018 0.07226328 -0.09021398
000190 84 26 e5 3c 7f b8 ad 3d f4 81 27 bd e8 e9 a9 bd
       0.027972467 0.084824555 -0.040895417 -0.08296567
0001a0 a3 38 7e 3c 8e 88 e9 bd 3d d1 ad bd 5d 3f a1 bd
       0.015516433 -0.11402999 -0.08487175 -0.07873414
0001b0 a9 67 d0 bd 59 5d 44 bc 5a d7 af bc c5 87 46 bd
       -0.101760216 -0.011985146 -0.021464992 -0.048469324
0001c0 a0 f5 8c bc 45 b8 87 3c e0 29 d8 bc 70 44 fb bc
       -0.017206967 0.016567359 -0.026387155 -0.030672282
0001d0 50 26 1b bd f8 b5 da bd ea 0c 17 be 5d 98 52 bd
       -0.037878335 -0.10679239 -0.1475102 -0.051414836
0001e0 71 c0 d0 bd 23 56 61 bd f1 5b db 3a 8f 7a 21 3d
       -0.10192955 -0.055013787 0.0016735775 0.03942352
0001f0 a8 09 c9 bc ed 50 06 3d 6b 74 41 be d8 01 74 bd
       -0.024540737 0.03279202 -0.18892066 -0.05957207
000200 0d a7 49 bb 89 9e 21 bd e9 75 24 3c 93 42 61 3d
       -0.0030769736 -0.03945783 0.010037878 0.05499513
000210 30 a3 50 bd b2 0d a1 bc a9 e5 32 3d 98 b1 eb bd
       -0.050936878 -0.01965985 0.043676052 -0.11508483
000220 1b 48 ad bc 89 7c 24 bb f4 7d 03 be 40 7f a7 bd
       -0.021152547 -0.0025098643 -0.12841016 -0.08178568
000230 0e 87 9b bc 71 f8 26 3d 55 08 20 3d 83 3f c6 bd
       -0.018985298 0.040764276 0.039070446 -0.09680083
000240 3b 00 2d 3d 3b 5b a1 bc 8c 27 9e 3d 7c a2 f2 3b
       0.042236548 -0.019696822 0.07722387 0.0074046236
000250 80 cc f0 3d c5 d6 d6 3c 7e 87 b1 3d 0c 14 3e 3b
       0.11757755 0.026225457 0.08668421 0.0029003648
000260 02 09 f1 bc 61 bb 15 be 90 58 90 3b 80 be cb 3c
       -0.02942324 -0.1462226 0.0044050887 0.02487111
000270 39 9b 37 3d db cd 3f bd 59 15 b1 bd 7a 97 f0 bb
       0.044825766 -0.04682718 -0.0864665 -0.007342276
000280 a7 b9 92 bc f4 38 56 3d f9 88 dd 3c a3 d2 21 bd
       -0.017910792 0.05230041 0.027042853 -0.03950752
000290 1b 13 b2 3d 1c 0b 10 3d 82 3e 57 bd d0 b7 74 3d
       0.0869505 0.035166845 -0.052549846 0.05974561
0002a0 21 e5 92 3d ef a8 f8 3a 71 2f 42 bb 6d 0d 12 3d
       0.07172609 0.0018971245 -0.0029630328 0.035657335
0002b0 04 4a 75 bd 50 19 da 3d 13 96 19 be 88 3a f2 3b
       -0.05988504 0.10649359 -0.14998655 0.0073922314
0002c0 4b 30 aa bd e8 b7 9e bc ad f7 5a 3c 40 c9 ea bd
       -0.083099924 -0.019374803 0.013364715 -0.11464167
0002d0 43 3a 90 3c f4 01 5c bb df d6 04 3b ea f3 65 3d
       0.017605906 -0.00335705 0.0020269675 0.056140818
0002e0 a6 95 f9 ba 93 79 1c bd ee 43 7a bd c6 36 ac bd
       -0.0019041791 -0.03820188 -0.06109994 -0.08408885
0002f0 fe e0 53 3d 51 f5 8a 3d 68 34 4a 3d cc 69 30 3c
       0.05172824 0.06785072 0.049366385 0.010767411
000300 1c 6d d3 bc de 4b 02 3e a2 a3 28 3d 53 a3 e7 3d
       -0.025808863 0.12724254 0.041171677 0.113104485
000310 32 10 65 3c da a7 b5 3c dd 2a 70 3b b5 a7 cf 3d
       0.013980912 0.022174764 0.0036646642 0.101394095
000320 3c 3a 00 3e 7b 6c 1d bc 81 24 78 3d f5 c4 fd bc
       0.12522215 -0.009608383 0.060581688 -0.030977705
000330 1c a7 d1 bb f3 c6 43 3d 19 ef 0e 3c 62 29 67 bd
       -0.006398095 0.047797155 0.0087239975 -0.05643595
000340 66 14 be bd 06 42 05 bd 94 00 c1 bb 0c 85 70 3d
       -0.092812344 -0.032533668 -0.0058899615 0.058720633
000350 16 38 3f bc da 0e 0b 3e 8d 99 98 3c ba 13 23 3e
       -0.011671087 0.13579884 0.018627906 0.15925494
000360 90 27 06 bd 74 13 0f 3d db 4d 83 3d c3 fd 17 3e
       -0.032752573 0.03493066 0.06411334 0.14842896
000370 50 d9 96 3d b1 a7 8e bc eb b1 34 3c f3 9e 44 3c
       0.07365668 -0.017413946 0.011028747 0.012000787
000380 3f d8 9a 3c 53 8e 2f be af 04 b3 3d 34 d9 1c be
       0.018901942 -0.17144136 0.08741128 -0.15317231
000390 73 97 a0 3b 78 8e 9a 3c 6f 59 4b bd d7 25 cb bc
       0.0049008667 0.018866763 -0.049645837 -0.024798317
0003a0 a5 02 86 3c 4f 34 05 3d 1d a1 92 3d 98 ad 02 bd
       0.016358683 0.03252059 0.07159636 -0.031903833
0003b0 f4 ad 22 3c 9d 5a 84 bc 6a d4 9b 3d af 4d 8b 3d
       0.009929169 -0.016156489 0.07608874 0.06801926
0003c0 c6 bb 92 bd 2f 54 79 bc 13 9a 23 3d 24 25 05 bc
       -0.07164721 -0.015217825 0.03994186 -0.008126531
0003d0 17 95 ff bd f1 3b 9b 3c 8f be c5 bc 59 b1 b3 bd
       -0.124796085 0.01894948 -0.024138717 -0.08774061
0003e0 89 29 57 3d 8a 66 b9 3d f8 3a e7 3c d7 d1 b2 3d
       0.052529845 0.09052761 0.02822636 0.0873143
0003f0 6f c8 95 3d 02 46 12 3e 9e 6f f3 3c f7 2b ff 3d
       0.0731362 0.14284518 0.02971631 0.124595575

block2.layer.0.convShortcut.weight f4 [32, 16, 1, 1]
000000 1f 1f 65 bd 3c 44 c7 bd 9a 26 6b be 89 09 f1 bc
       -0.055937883 -0.097298115 -0.22963944 -0.029423492
000010 7c 33 c5 bd 65 97 d4 be 63 ff c6 3e 69 bf e5 3e
       -0.096289605 -0.41521755 0.3886672 0.44872597
000020 45 19 14 be b5 0f 5f be 50 9e fb bc c1 55 41 bd
       -0.14462765 -0.21783336 -0.030715138 -0.047200922
000030 45 47 3c be e1 8b 09 be 49 10 6c bd f9 73 20 be
       -0.18386562 -0.13432266 -0.05763272 -0.1566924
000040 82 a0 1d 3d fc f6 db 3d 7d 37 e0 3d 4b e5 36 3d
       0.03848315 0.10740468 0.109480835 0.044652265
000050 73 74 0a 3e 40 8f cc bd 44 da 5a be e0 09 d7 3d
       0.13520984 -0.0998826 -0.21372324 0.104999304
000060 43 a0 3d 3e 76 76 00 be f3 ea c4 3d d0 d6 15 3e
       0.18518166 -0.1254519 0.096151255 0.14632726
000070 e6 d8 b2 3c 92 b2 59 3e 44 11 85 bd 1c a6 ad 3d
       0.02183194 0.21259525 -0.06497434 0.084789485
000080 3b 2b d7 bb 97 37 27 3d 97 ff 6d 3e 99 8d b8 3d
       -0.006566433 0.0408245 0.23242031 0.090113826
000090 59 c7 bd 3d ef 9e 70 3d d4 de d4 3c f4 2d eb bd
       0.09266538 0.05874532 0.025985159 -0.11483374
0000a0 5d b2 8d bd 52 c8 7e bd 5e 8d 1d bc 98 27 ac be
       -0.06918786 -0.06220276 -0.009616224 -0.33623958
0000b0 87 a4 5a 3d 13 be 6b bd 4c d7 61 bd f7 97 4b 3d
       0.05337956 -0.057554316 -0.055136964 0.04970547
0000c0 d2 18 bc 3d c6 65 1b be ea e1 02 3e ea 7a 8a 3d
       0.091844216 -0.15175542 0.12781492 0.06761725
0000d0 04 de 5a 3e 07 44 d2 bd b7 7d 18 3e a2 f5 b7 3d
       0.21373755 -0.102668814 0.14891706 0.089823976
0000e0 27 0f 6f be 67 c5 e4 3c f3 41 16 be 1b a5 e1 bd
       -0.23345624 0.02792616 -0.14673595 -0.110178195
0000f0 22 cd f9 bd 49 a1 5c bd 08 3a 61 bd 64 e9 b3 bc
       -0.12197329 -0.05386475 -0.054986984 -0.021961875
000100 08 84 4d 3e 0f 9c 04 be f1 69 42 3d a5 1b 2b 3e
       0.20069897 -0.12950157 0.047464315 0.16709764
000110 74 2e e4 bd 54 30 76 3c 7d c4 ef bd 74 f2 1a bf
       -0.11141673 0.015026171 -0.11707399 -0.60526204
000120 0b a1 6d 3e 75 85 8a bd 38 6f f6 3d 10 8e 58 3d
       0.23205964 -0.06763736 0.12032932 0.052869856
000130 23 77 d6 bc 59 9d 0e be 48 4b 62 be 22 df 8f 3d
       -0.026179856 -0.13927211 -0.2209903 0.07024981
000140 2e 3a 4a bd 58 66 c3 3b 21 87 36 be c9 4f 06 3e
       -0.04937189 0.005963128 -0.17824985 0.13116373
000150 04 ae 29 be 0f 43 c9 bd 93 b6 be bd 82 3b 84 3e
       -0.16570288 -0.098272435 -0.09312167 0.2582665
000160 6f 1a 65 be 32 e7 b9 bc 56 2b 52 3c ad f6 42 bc
       -0.22373365 -0.02269325 0.012827715 -0.011899632
000170 ed 00 34 be ca 2d e9 3d bc bb 6f be 04 86 4c be
       -0.17578478 0.11385687 -0.23411459 -0.19972998
000180 5a f5 bb bd 1a e9 39 3d b9 c6 a0 be 48 0e fb bd
       -0.091776565 0.04538832 -0.31401613 -0.12258583
000190 e3 fd 0b bd 01 81 41 3e 77 13 23 3e a5 0c 6d 3c
       -0.034177672 0.18896867 0.15925394 0.014468347
0001a0 96 92 67 be 51 02 42 3d 56 ba 52 bd 37 0a 11 3e
       -0.22614512 0.04736549 -0.051447235 0.14164053
0001b0 75 fc 91 3e d9 5f 35 3e 7d 0f 30 3d 5a b1 11 bd
       0.28512922 0.17712344 0.04298352 -0.035569526
0001c0 96 41 87 3d 2f 98 e1 bd 68 46 2f be bb 31 c8 be
       0.066043064 -0.11015355 -0.17116702 -0.3910044
0001d0 88 bf 9e be f0 d0 05 be f6 4f c7 3e 6c 4f 1c be
       -0.31005502 -0.13067985 0.38928193 -0.15264672
0001e0 3c 4d ba 39 62 8a 9c be 06 ea 66 be 19 0b b2 3d
       0.0003553423 -0.30574328 -0.2255021 0.08693523
0001f0 9e ba 01 3e 71 25 9c bd 1e 78 32 3b e5 13 99 3d
       0.12668845 -0.07624329 0.002723224 0.07474498
000200 a8 e0 5f 3e dc 6c 90 3c ae cb 4a bb b1 15 9a 3d
       0.21863043 0.017630033 -0.0030944156 0.075236686
000210 80 72 5b bd cf 5f a3 3d b4 4e 97 bd a4 a9 d5 3c
       -0.053575993 0.079772584 -0.07388058 0.026081868
000220 09 7a 1b be b4 e8 07 3e c1 b4 9b bc c9 b9 a7 bd
       -0.15183271 0.13272363 -0.019007089 -0.081897326
000230 df 91 97 3d c3 3a bc bd ad 4c de bd 9f d9 da bd
       0.074008696 -0.091908954 -0.108544685 -0.10686039
000240 69 d0 c6 bd ec 59 87 3d 27 c0 89 3d 34 ed a9 3d
       -0.0970772 0.06608948 0.06726103 0.08297196
000250 2b bb 96 3d 2d 70 d1 3c 0e eb 1f bd 5f 8c 3f 3e
       0.07359918 0.025566185 -0.039042525 0.18705891
000260 6f da 59 bd ea ce fb bd 7c 60 e1 bd 43 ee ad be
       -0.05318683 -0.12295325 -0.11004731 -0.33970842
000270 59 78 cc bc b6 ae 03 be 64 5c 17 3d 61 fa f5 3b
       -0.02495973 -0.12859616 0.036953345 0.007506654
000280 af 49 44 3c 09 21 9f bd 02 60 a5 bc 8f 9c 01 bd
       0.011980458 -0.07769973 -0.020187382 -0.031643447
000290 e3 02 29 bd e1 46 56 bd d2 e8 72 ba fc 01 c8 bc
       -0.04126252 -0.05231369 -0.00092662603 -0.024415009
0002a0 e0 51 27 3e dd 42 ee 3d 9e 12 05 bd 9f ba 4b bc
       0.16339827 0.11633847 -0.032488458 -0.012434631
0002b0 e1 de 0d 3d 08 03 8b 3e 7e c3 67 3e 23 6f 52 3e
       0.034636382 0.2715075 0.22633168 0.20550208
0002c0 81 81 95 bd c6 9c 42 bb 0b 0e 3f 3e fc ef 96 3d
       -0.073000915 -0.0029695495 0.186577 0.07369992
0002d0 1d ff 2d bd 5f 01 25 be e1 ff 96 3b 1e 60 b7 3e
       -0.042479623 -0.16113804 0.00460814 0.3581552
0002e0 38 76 f2 bd d8 f1 db bc 5b dc 44 3e 0a 4c 15 3e
       -0.11838955 -0.026848719 0.19224684 0.14579788
0002f0 fb e6 2c 3e b3 93 2e bb 7d ab 0d bd fb ba f0 3d
       0.16884987 -0.0026638329 -0.034587372 0.11754414
000300 c1 93 60 be 91 e2 d1 3d 59 76 8d be 6a 01 d5 bd
       -0.21931364 0.10248292 -0.27629355 -0.1040066
000310 14 7e 18 3d 7e fa 01 3e ae c6 52 3e 3d 77 4a be
       0.037229612 0.12693211 0.20583603 -0.19772048
000320 03 31 ab bc 03 e2 b1 bd 07 1b 13 be 8e 5e bf 3d
       -0.020897394 -0.086856864 -0.14365779 0.09344207
000330 ec cd ab 3d 72 00 56 3e ac 33 17 be eb b9 da 3c
       0.08388886 0.20898607 -0.14765805 0.02669998
000340 1f 0e bd bd dc cd 91 3d af c6 d5 3b 02 29 67 3c
       -0.09231209 0.07119343 0.006523929 0.014108898
000350 83 13 3f be 18 9f d8 3d 71 06 96 3e 0f d7 7d 3d
       -0.18659787 0.1057722 0.2930179 0.061972674
000360 cb 58 01 be fc 70 09 3e 89 97 60 bd 0c 21 85 3d
       -0.12631528 0.13422006 -0.054832015 0.06500444
000370 5a 2a 90 3c 02 27 31 bc df 2e 1f 3e 3d 1e 04 bd
       0.01759832 -0.010812523 0.15545224 -0.0322554
000380 40 06 04 be db a5 7d 3d 8d b9 16 be 4a 37 84 be
       -0.12893009 0.06192575 -0.1471922 -0.25823432
000390 aa 61 46 3d d8 f5 3c 3e 39 e7 d3 bd ef 0f 77 bd
       0.048432983 0.18453157 -0.103468366 -0.06031793
0003a0 9b 9e d0 bd 36 89 83 bd d2 6e 37 bd 66 47 3f be
       -0.101865016 -0.06422655 -0.04478342 -0.1867958
0003b0 e7 a0 b3 3d d3 98 17 3e f9 93 b3 3c 5a a7 d3 3c
       0.08770924 0.14804392 0.021921145 0.025836635
0003c0 41 60 10 bc c0 63 fa 3d 00 1f 43 bd 24 b1 6e be
       -0.008812011 0.12226057 -0.047636986 -0.23309761
0003d0 0c f7 8c 3b 49 64 1c 3e 63 6b 33 3e b9 6e 9e 3d
       0.004301911 0.15272631 0.17521434 0.077359624
0003e0 09 49 77 be 86 d2 9d 3d ff 74 97 3c 04 ed 00 bd
       -0.24148954 0.0770617 0.018488405 -0.031476036
0003f0 30 d4 03 be 2d 33 eb 3d e2 04 a4 bd 73 93 a3 bc
       -0.12873912 0.114843704 -0.08008744 -0.01996777

block3.layer.0.bn1.weight f4 [32]
000000 00 00 80 3f 00 00 80 3f 00 00 80 3f 00 00 80 3f
       1.0 1.0 1.0 1.0
000010 00 00 80 3f 00 00 80 3f 00 00 80 3f 00 00 80 3f
       1.0 1.0 1.0 1.0
000020 00 00 80 3f 00 00 80 3f 00 00 80 3f 00 00 80 3f
       1.0 1.0 1.0 1.0
000030 00 00 80 3f 00 00 80 3f 00 00 80 3f 00 00 80 3f
       1.0 1.0 1.0 1.0
000040 00 00 80 3f 00 00 80 3f 00 00 80 3f 00 00 80 3f
       1.0 1.0 1.0 1.0
000050 00 00 80 3f 00 00 80 3f 00 00 80 3f 00 00 80 3f
       1.0 1.0 1.0 1.0
000060 00 00 80 3f 00 00 80 3f 00 00 80 3f 00 00 80 3f
       1.0 1.0 1.0 1.0
000070 00 00 80 3f 00 00 80 3f 00 00 80 3f 00 00 80 3f
       1.0 1.0 1.0 1.0

block3.layer.0.bn1.bias f4 [32]
000000 00 00 00 00 00 00 00 00 00 00 00 00 00 00 00 00
       0.0 0.0 0.0 0.0
000010 00 00 00 00 00 00 00 00 00 00 00 00 00 00 00 00
       0.0 0.0 0.0 0.0
000020 00 00 00 00 00 00 00 00 00 00 00 00 00 00 00 00
       0.0 0.0 0.0 0.0
000030 00 00 00 00 00 00 00 00 00 00 00 00 00 00 00 00
       0.0 0.0 0.0 0.0
000040 00 00 00 00 00 00 00 00 00 00 00 00 00 00 00 00
       0.0 0.0 0.0 0.0
000050 00 00 00 00 00 00 00 00 00 00 00 00 00 00 00 00
       0.0 0.0 0.0 0.0
000060 00 00 00 00 00 00 00 00 00 00 00 00 00 00 00 00
       0.0 0.0 0.0 0.0
000070 00 00 00 00 00 00 00 00 00 00 00 00 00 00 00 00
       0.0 0.0 0.0 0.0

block3.layer.0.bn1.running_mean f4 [32]
000000 06 78 98 3c 5a 1d ee 3e d2 79 c4 be 79 ce d8 3d
       0.01861192 0.46506768 -0.38374192 0.105862565
000010 49 c4 a3 3d d6 ad 4c be 01 85 d5 3d 64 61 49 be
       0.07996423 -0.19988188 0.10425759 -0.19666058
000020 f6 76 96 be 81 a6 49 3e d8 3b d6 3d 9e 99 dc bd
       -0.29387635 0.19692422 0.10460633 -0.10771488
000030 a8 f2 3e be 57 43 3d 3d af 5f d2 3e 2a cf ae bc
       -0.18647254 0.0462068 0.41088626 -0.021339018
000040 bd 50 a8 be 65 24 f7 3d f4 f7 04 3e 35 40 c5 3e
       -0.32874098 0.120674886 0.12985212 0.3852555
000050 cd a0 9e 3e b5 32 8b 3c e0 13 f0 3d 80 27 84 3e
       0.30982056 0.016991952 0.11722541 0.25811386
000060 bf c3 d1 3c 53 d6 41 3c 09 b2 84 3e f5 86 86 be
       0.025606034 0.011830884 0.2591708 -0.2627484
000070 18 55 4b bf 7f b5 b9 3d c0 71 76 bd 9c a0 6b be
       -0.7942672 0.09067821 -0.060167074 -0.23010486
